weight/best_graphsage_model.pth (torch, 212768 bytes, 12 tensors)

conv1.lin_l.weight f4 [90, 90]
00000000: e460 0080 6310 0080 0e0f 0080 0211 0000
00000010: d353 0080 b60d 0080 9b3b c238 9440 1980
00000020: 57af ddb0 a110 0000 1d11 0000 4e09 0080
00000030: af0d 0000 a010 0000 c90e 0000 ea7a 3c96
00000040: e81a 0500 450b 0080 b50d 0080 ee0e 0000
00000050: 8409 0080 850f 0080 480f 0000 6411 0080
00000060: 7910 0080 ba0d 0000 7a10 0080 c710 0080
00000070: 002b 0000 db0f 0000 2b0f 0000 850e 0000
00000080: c010 0080 e60e 0000 d610 0000 3e10 0000
00000090: a30e 0000 ed1e 0080 ad10 0080 190f 0080
000000a0: 410e 0000 fe0e 0080 a70f 0080 1b0f 0000
000000b0: f543 0080 c443 0080 b40e 0000 8809 0080
000000c0: a40e 0000 9d0e 0080 2911 0080 a210 0080
000000d0: da55 fa1f cf0e 0000 d489 0000 2c10 0080
000000e0: 4c0f 0080 2810 0080 b20d 0080 7d0e 0000
000000f0: 252a 0080 eb0f 0080 6911 0000 c60d 0080
00000100: 4ad9 811b 520f 0000 2d10 0080 3d0f 0080
00000110: b10d 0080 1e10 0000 9110 0000 6010 0000
00000120: 5b0e 0000 9426 0080 340f 0000 8f32 0080
00000130: cb0f 0000 c10f 0080 5c0f 0080 b10d 0080
00000140: b40f 0000 0722 0080 630f 0000 ce01 0000
00000150: 830f 0080 a610 0000 e810 0000 c910 0080
00000160: b30e 0000 c20d 0000 940d 0080 b00d 0000
00000170: d710 0000 2d0f 0000 4011 0000 b40d 0000
00000180: 7083 7b3c 91d0 043d 0c44 403c 0c0f 0080
00000190: 3311 0080 1210 0000 360f 0080 910e 0080
000001a0: 1b0e 0080 3c1e 253c 0c58 3d3b 95a8 1392
000001b0: 560e 0000 1a10 0080 c40f 0080 f50e 0000
000001c0: d60e 0080 c40d 0080 c90e 0000 aa0f 0080
000001d0: b00d 0000 b60d 0000 b20d 0080 0711 0000
000001e0: b40d 0080 8b0f 0080 4545 0080 500f 0000
000001f0: 63eb 0f91 800f 0000 0d0f 0000 e70f 0080
00000200: e70e 0080 aa0f 0080 d210 0000 2910 0000
00000210: 5c0f 0080 660e 0080 570e 0080 5311 0000
00000220: aa10 0080 800e 0000 7005 0000 b60d 0080
00000230: fb0f 0080 ee0f 0080 f310 0080 e7c6 9d17
00000240: c70d 0000 7d0f 0080 ad0e 0000 db21 0080
00000250: b90d 0000 da0b 0000 b10d 0080 980f 0000
00000260: 702a 0000 b50d 0080 cd0f 0080 eb21 0000
00000270: 5f10 0080 ac0d 0080 4f0f 0080 2d87 889d
00000280: 5011 0000 2e28 0000 b50d 0000 3f11 0000
00000290: f610 0000 060f 0000 cf0f 0000 a79b 1d1a
000002a0: 960e 0080 b10f 0000 1010 0080 2b11 0080
000002b0: 2a61 0000 2a0d 0080 ac10 0080 8f0e 0080
000002c0: ae0e 0000 be0d 0080 1f0f 0080 ad0d 0080
000002d0: b00d 0080 1b11 0080 3c0c 0000 480c 0080
000002e0: 9c27 0000 f10f 0000 9853 0dbe 9cde 223e
000002f0: 412a 0a3e 7671 0080 051a 0080 df0e 0080
00000300: 0710 0000 4a0e 0000 4111 0080 9c37 5bbc
00000310: e6ca 5dbc 9ee7 02bb cf0e 0080 b80d 0000
00000320: c90e 0000 7a0e 0080 b30d 0080 9311 0080
00000330: 1f11 0000 6f0e 0080 dc19 0905 6211 0000
00000340: 2a11 0080 4a0e 0080 bd4c 0080 681b 0080
00000350: dd0f 0000 460f 0080 430e 5cbb fc10 0000
00000360: bc0f 0080 320f 0080 840e 0000 b50d 0000
00000370: 352c 0000 b20d 0000 470f 0000 e20f 0080
00000380: 2b22 0080 2a45 0080 110f 0000 cc10 0000
00000390: fd10 0080 8e5e 0000 fa0d 0080 680f 0080
000003a0: aa0e 0000 1102 95bc 8911 0080 b70d 0000
000003b0: 430e 0080 0e0f 0080 d70d 0000 e40f 0000
000003c0: b10e 0000 020e 0000 7c0f 0000 8a0e 0080
000003d0: a210 0000 ef6e 0080 5d0f 0000 c00e 0000
000003e0: b60f 0080 780f 0080 340e 0000 830e 0000
000003f0: f20f 0000 a310 0080 ba0d 0080 302c fd9b
-3.4758e-41 -5.878e-42 -5.4e-42 6.101e-42 -3.007e-41 -4.919e-42 9.261743e-05 -2.319054e-39
-1.6129701e-09 5.965e-42 6.139e-42 -3.338e-42 4.909e-42 5.964e-42 5.304e-42 -1.5225304e-25
4.6883e-40 -4.043e-42 -4.917e-42 5.356e-42 -3.414e-42 -5.567e-42 5.482e-42 -6.239e-42
-5.909e-42 4.924e-42 -5.91e-42 -6.019e-42 1.5425e-41 5.688e-42 5.441e-42 5.209e-42
-6.009e-42 5.345e-42 6.04e-42 5.827e-42 5.25e-42 -1.1094e-41 -5.982e-42 -5.416e-42
5.113e-42 -5.378e-42 -5.615e-42 5.419e-42 -2.4378e-41 -2.431e-41 5.274e-42 -3.419e-42
5.252e-42 -5.242e-42 -6.156e-42 -5.967e-42 1.0602115e-19 5.312e-42 4.9443e-41 -5.801e-42
-5.487e-42 -5.796e-42 -4.913e-42 5.197e-42 -1.5119e-41 -5.71e-42 6.246e-42 -4.941e-42
2.148168e-22 5.496e-42 -5.803e-42 -5.466e-42 -4.912e-42 5.782e-42 5.943e-42 5.874e-42
5.15e-42 -1.3839e-41 5.454e-42 -1.8137e-41 5.665e-42 -5.651e-42 -5.51e-42 -4.912e-42
5.633e-42 -1.2207e-41 5.52e-42 6.47e-43 -5.565e-42 5.972e-42 6.065e-42 -6.021e-42
5.273e-42 4.935e-42 -4.871e-42 4.91e-42 6.041e-42 5.444e-42 6.188e-42 4.916e-42
0.015351161 0.032425467 0.011734974 -5.398e-42 -6.17e-42 5.765e-42 -5.457e-42 -5.225e-42
-5.06e-42 0.010078009 0.0028891591 -4.6592815e-28 5.143e-42 -5.776e-42 -5.656e-42 5.366e-42
-5.322e-42 -4.938e-42 5.304e-42 -5.619e-42 4.91e-42 4.919e-42 -4.913e-42 6.108e-42
-4.916e-42 -5.576e-42 -2.4849e-41 5.493e-42 -1.1353245e-28 5.56e-42 5.399e-42 -5.705e-42
-5.346e-42 -5.619e-42 6.034e-42 5.797e-42 -5.51e-42 -5.165e-42 -5.144e-42 6.215e-42
-5.978e-42 5.202e-42 1.95e-42 -4.919e-42 -5.733e-42 -5.714e-42 -6.08e-42 1.0196097e-24
4.942e-42 -5.556e-42 5.265e-42 -1.2145e-41 4.923e-42 4.252e-42 -4.912e-42 5.594e-42
1.5224e-41 -4.917e-42 -5.668e-42 1.2167e-41 -5.873e-42 -4.905e-42 -5.492e-42 -3.613867e-21
6.21e-42 1.4414e-41 4.917e-42 6.187e-42 6.084e-42 5.39e-42 5.671e-42 3.2592574e-23
-5.232e-42 5.629e-42 -5.762e-42 -6.159e-42 3.4856e-41 -4.722e-42 -5.981e-42 -5.223e-42
5.266e-42 -4.93e-42 -5.424e-42 -4.906e-42 -4.91e-42 -6.136e-42 4.389e-42 -4.406e-42
1.4209e-41 5.719e-42 -0.1380142 0.15905231 0.13492681 -4.0702e-41 -9.334e-42 -5.335e-42
5.75e-42 5.126e-42 -6.19e-42 -0.0133799575 -0.013537144 -0.001997448 -5.312e-42 4.921e-42
5.304e-42 -5.193e-42 -4.914e-42 -6.304e-42 6.142e-42 -5.178e-42 6.446459e-36 6.236e-42
-6.157e-42 -5.126e-42 -2.7529e-41 -9.832e-42 5.69e-42 -5.479e-42 -0.0033577837 6.093e-42
-5.644e-42 -5.451e-42 5.207e-42 4.917e-42 1.5858e-41 4.913e-42 5.48e-42 -5.698e-42
-1.2257e-41 -2.4811e-41 5.405e-42 6.026e-42 -6.094e-42 3.392e-41 -5.014e-42 -5.527e-42
5.26e-42 -0.018189462 -6.29e-42 4.92e-42 -5.116e-42 -5.4e-42 4.965e-42 5.7e-42
5.27e-42 5.025e-42 5.555e-42 -5.216e-42 5.967e-42 -3.9795e-41 5.511e-42 5.291e-42
-5.636e-42 -5.549e-42 5.095e-42 5.206e-42 5.72e-42 -5.968e-42 -4.924e-42 -4.1883894e-22

conv1.lin_l.bias f4 [90]
00000000: 57e2 d8b9 5f37 763b 6104 7e3d 6d4e 853c
00000010: ba16 733c 8d7e 873d 2868 35bb 197d 2c3c
00000020: 3e78 993d 5224 38b4 5460 a23b 9779 2a3c
00000030: 85ec d7bb 84cb 223c a6c7 d3bb 23e9 a7bb
00000040: def4 7e3c 6535 3d3c 1a12 0b3d ef65 e13d
00000050: 0796 463b a6af af3d 1590 92bb ae2b ebbb
00000060: 2536 da3c 6c9f 3c3c 8876 30bb f4ff 013e
00000070: 4a14 bfb9 ffce 4dbb cfdf 0a3b 6a53 003e
00000080: 3674 953a 5138 f3bc a1fc 7cbc 69c2 30bc
00000090: 19d2 693c 4afb 6d3d 2ec3 b5bc 2a8a 96bc
000000a0: c215 913d 81da a03b 92e7 2cbb 238b 63bb
000000b0: 5248 533d 14a5 773d 91da 013e 6cd1 cf3c
000000c0: a839 03ba 32c5 2c3c 6913 fcb6 76ef 4a3d
000000d0: e06f f4bb 137a d33a e0cb c1bb 4171 ac3c
000000e0: 585b 2e3b 3380 4cbd d5ce 8ebc cba4 1abb
000000f0: 5d3e b73c 4677 273e 515f 3bbb 6f43 3d3d
00000100: 6420 453d 456a b2bb a514 f0bb c35f 1b3d
00000110: ab5c 4eba bdcb 00bc 75ea 2b3d 0cfb 173c
00000120: 5485 75bb 3930 cf3d 13df d9bb 3f26 423d
00000130: c8df 09bb ace4 54bc d6c4 fe3c 5840 173d
00000140: d537 10bc 6d5d b43b 5be6 ec3c 8c4b e5bb
00000150: 785d 91bc 8669 4c3d 38f3 9e3c 15b5 93bb
00000160: 21a2 aeba 623c 153d
-0.00041367367 0.0037569625 0.062015895 0.016272748 0.014836961 0.066159345 -0.002768049 0.0105278725
0.074936375 -1.7149549e-07 0.004955331 0.010404966 -0.0065894746 0.009936217 -0.006463009 -0.0051242276
0.015561311 0.011548375 0.03395281 0.110057704 0.0030301826 0.08578424 -0.0044727423 -0.007176838
0.026637146 0.0115126185 -0.002692612 0.12695295 -0.00036445475 -0.0031403897 0.002119053 0.1253182
0.0011402431 -0.02968994 -0.015441091 -0.0107885385 0.014271283 0.058100976 -0.022187795 -0.018376429
0.07084228 0.00490886 -0.0026383144 -0.0034720383 0.051582642 0.060460165 0.12681033 0.025368415
-0.0005005845 0.010545062 -7.512445e-06 0.049544774 -0.0074596256 0.0016134403 -0.0059141964 0.021050097
0.0026604738 -0.049926948 -0.01743261 -0.002359676 0.022368604 0.16354093 -0.0028590749 0.046206888
0.048126593 -0.005444797 -0.00732668 0.037933122 -0.0007872085 -0.007861075 0.041971643 0.009276163
-0.0037463503 0.101166196 -0.006648907 0.047399756 -0.0021037925 -0.012993973 0.031099718 0.036926597
-0.008802374 0.0055043013 0.028918436 -0.0069975313 -0.017744765 0.049905322 0.019403085 -0.0045076706
-0.0013323465 0.03643454

conv1.lin_r.weight f4 [90, 90]
00000000: 870f 0000 d604 0080 5a0e 0000 540c 0000
00000010: 6110 0000 2b10 0080 2837 09b8 d50d 0080
00000020: 74c0 ec34 c110 0000 140f 0000 510e 0080
00000030: fc0d 0000 6f11 0000 5a7f 0080 bf0d 0000
00000040: 300e 0000 dc1b 0080 ba0d 0080 be10 0000
00000050: e20f 0000 b50d 0000 7e0e 0080 b10e 0080
00000060: e76b 0000 670e 0000 dc0d 0080 ed0d 0000
00000070: d925 0000 a70f 0000 310f 0080 a32a 0000
00000080: 3f0e 0080 3b0f 0080 b710 0000 e80e 0000
00000090: d80f 0080 6a0e 0000 521d 0000 2811 0000
000000a0: 4511 0080 7010 0080 320e 0080 000e 0000
000000b0: 8f16 0080 3a0f 0000 b40d 0000 d80f 0000
000000c0: 5111 0000 dd0d 0000 4c0e 0000 ee0f 0000
000000d0: b40d 0080 7a11 0000 c80e 0000 440f 0080
000000e0: da0d 0000 e406 0080 f30f 0080 979e 0080
000000f0: ce0f 0000 860f 0080 fc0f 0080 c30e 0080
00000100: 530f 0080 7e11 0000 3d0e 0080 b60d 0080
00000110: af0d 0080 920c 0000 000e 0000 560e 0000
00000120: b90d 0000 e410 0080 c60d 0000 8a10 0080
00000130: 8311 0000 ee0d 0000 d30d 0000 c70f 0080
00000140: 0729 0000 a610 0000 d70e 0080 7d08 0000
00000150: 210f 0000 fe0d 0080 6910 0080 f40f 0000
00000160: 1c0f 0000 b80d 0000 960f 0000 ec0f 0080
00000170: c610 0080 c30e 0000 c30d 0000 4b11 0000
00000180: cb3a 29bd 7e01 2a3e e34d 273e 280e 0080
00000190: 6810 0000 dd0d 0000 0e0f 0000 6a10 0000
000001a0: a910 0080 8e4d 0f3c a897 393c 3c98 65bb
000001b0: 0e0e 0000 1f10 0080 b70e 0080 3f0e 0080
000001c0: d310 0000 240e 0080 0f31 0000 c00d 0080
000001d0: b70d 0080 670f 0000 0d0f 0000 ed49 0080
000001e0: ed0c 0000 1009 ca9e f90d 0080 b431 0000
000001f0: 1a1e 6bbb c00d 0080 bf0f 0000 bc0f 0000
00000200: 350e 0000 5e0e 0080 8d0f 0080 b10d 0000
00000210: 710f 0080 6737 d402 9a0e 0000 f010 0080
00000220: 210f 0080 fa10 0000 8310 0000 2f10 0000
00000230: e10e 0000 cf6b 67a8 200e 0080 14a6 81bc
00000240: 7b0e 0000 1611 0000 0011 0000 b90d 0080
00000250: be07 0080 420b 0000 3d11 0000 600f 0080
00000260: 3110 0080 2e11 0080 8811 0080 e80d 0000
00000270: 6d0e 0080 c00e 0080 df0f 0080 200f 0000
00000280: 7f10 0000 2b11 0000 6e10 0080 3d0f 0000
00000290: c00e 0000 0c10 0000 1c2b 0080 ba10 0000
000002a0: bb0d 0000 7210 0000 3410 0000 ca0e 0080
000002b0: 7531 0000 dd10 0080 1511 0080 3530 0000
000002c0: 280f 0080 810f 0000 f40f 0080 f710 0000
000002d0: 4f0f 0000 e10e 0000 b810 0080 250f 0000
000002e0: 240e 0080 0b0e 0080 9bdf 983d b33d 983c
000002f0: abae 053d a10f 0000 700e 0080 6911 0000
00000300: ab0f 0000 1f0f 0080 cb10 0000 75dd 03bc
00000310: f601 18bd 6010 0000 fd0f 0080 2b0f 0000
00000320: 1911 0000 4b0e 0080 d30e 0080 e00d 0000
00000330: b50d 0000 c50d 0080 1011 0000 560e 0000
00000340: 6d0f 0000 520e 0000 f70d 0080 160f 0080
00000350: 950f 0080 c30d 0000 400e 0000 0311 0080
00000360: 190f 0000 f20d 0000 9b0f 0080 0c10 0000
00000370: b00d 0080 7a10 0000 6872 0080 e10f 0080
00000380: b40d 0000 150e 0080 7611 0080 2c11 0000
00000390: 9a10 0080 990f 0080 540f 0080 bf0e 0080
000003a0: bb10 0000 e60d 0000 ff03 0080 0010 0080
000003b0: 230f 0000 020f 0000 440e 0080 b50d 0000
000003c0: a10f 0080 af10 0080 b00d 0080 b92d 0080
000003d0: 1c0f 0080 0e10 0080 ad0d 0080 720e 0000
000003e0: 560f 0000 f00e 0080 8410 0080 6e0e 0080
000003f0: ee0e 0080 a910 0000 7411 0000 1d0f 0080
5.57e-42 -1.735e-42 5.148e-42 4.422e-42 5.876e-42 -5.8e-42 -3.2714714e-05 -4.962e-42
4.4098454e-07 6.01e-42 5.409e-42 -5.136e-42 5.017e-42 6.254e-42 -4.5685e-41 4.931e-42
5.09e-42 -9.994e-42 -4.924e-42 6.006e-42 5.698e-42 4.917e-42 -5.199e-42 -5.27e-42
3.8708e-41 5.167e-42 -4.972e-42 4.996e-42 1.3577e-41 5.615e-42 -5.45e-42 1.5295e-41
-5.11e-42 -5.464e-42 5.996e-42 5.347e-42 -5.684e-42 5.171e-42 1.0518e-41 6.155e-42
-6.195e-42 -5.897e-42 -5.092e-42 5.022e-42 -8.092e-42 5.462e-42 4.916e-42 5.684e-42
6.212e-42 4.973e-42 5.129e-42 5.714e-42 -4.916e-42 6.27e-42 5.303e-42 -5.476e-42
4.969e-42 -2.472e-42 -5.722e-42 -5.6891e-41 5.67e-42 -5.569e-42 -5.734e-42 -5.296e-42
-5.497e-42 6.275e-42 -5.108e-42 -4.919e-42 -4.909e-42 4.51e-42 5.022e-42 5.143e-42
4.923e-42 -6.059e-42 4.941e-42 -5.933e-42 6.282e-42 4.997e-42 4.959e-42 -5.66e-42
1.4718e-41 5.972e-42 -5.324e-42 3.045e-42 5.427e-42 -5.02e-42 -5.887e-42 5.723e-42
5.42e-42 4.921e-42 5.591e-42 -5.712e-42 -6.017e-42 5.296e-42 4.937e-42 6.204e-42
-0.041315835 0.16602132 0.16338305 -5.078e-42 5.885e-42 4.973e-42 5.4e-42 5.888e-42
-5.977e-42 0.008746518 0.011327662 -0.0035033366 5.042e-42 -5.783e-42 -5.279e-42 -5.11e-42
6.035e-42 -5.073e-42 1.7599e-41 -4.933e-42 -4.92e-42 5.525e-42 5.399e-42 -2.652e-41
4.637e-42 -2.139133e-20 -5.012e-42 1.783e-41 -0.0035876096 -4.933e-42 5.649e-42 5.644e-42
5.097e-42 -5.154e-42 -5.579e-42 4.912e-42 -5.54e-42 3.11824e-37 5.238e-42 -6.076e-42
-5.427e-42 6.09e-42 5.923e-42 5.806e-42 5.338e-42 -1.2846453e-14 -5.067e-42 -0.015826263
5.195e-42 6.129e-42 6.098e-42 -4.923e-42 -2.777e-42 4.039e-42 6.184e-42 -5.516e-42
-5.808e-42 -6.163e-42 -6.289e-42 4.989e-42 -5.175e-42 -5.291e-42 -5.693e-42 5.426e-42
5.918e-42 6.159e-42 -5.894e-42 5.466e-42 5.291e-42 5.757e-42 -1.5465e-41 6e-42
4.926e-42 5.9e-42 5.813e-42 -5.305e-42 1.7742e-41 -6.05e-42 -6.128e-42 1.7293e-41
-5.437e-42 5.562e-42 -5.723e-42 6.086e-42 5.492e-42 5.338e-42 -5.998e-42 5.433e-42
-5.073e-42 -5.038e-42 0.07464524 0.018584108 0.03263728 5.607e-42 -5.179e-42 6.246e-42
5.62e-42 -5.424e-42 6.024e-42 -0.008048405 -0.037111245 5.874e-42 -5.736e-42 5.441e-42
6.133e-42 -5.127e-42 -5.318e-42 4.977e-42 4.917e-42 -4.94e-42 6.121e-42 5.143e-42
5.534e-42 5.137e-42 -5.01e-42 -5.412e-42 -5.59e-42 4.937e-42 5.112e-42 -6.103e-42
5.416e-42 5.003e-42 -5.598e-42 5.757e-42 -4.91e-42 5.91e-42 -4.1041e-41 -5.696e-42
4.916e-42 -5.052e-42 -6.264e-42 6.16e-42 -5.956e-42 -5.595e-42 -5.499e-42 -5.29e-42
6.002e-42 4.986e-42 -1.434e-42 -5.74e-42 5.43e-42 5.384e-42 -5.118e-42 4.917e-42
-5.607e-42 -5.985e-42 -4.91e-42 -1.6402e-41 -5.42e-42 -5.76e-42 -4.906e-42 5.182e-42
5.501e-42 -5.359e-42 -5.925e-42 -5.176e-42 -5.356e-42 5.977e-42 6.261e-42 -5.422e-42

conv2.lin_l.weight f4 [90, 90]
00000000: 910f 0000 6a0f 0000 0811 0000 ef0e 0000
00000010: 7b0e 0000 3c0f 0000 7510 0080 690e 0080
00000020: e310 0080 1d10 0080 5710 0080 1a10 0080
00000030: 0b0e 0000 da0d 0080 4910 0080 f60e 0000
00000040: 410f 0000 070e 0000 0d0e 0080 300e 0000
00000050: 9e0e 0000 2f0f 0000 d30d 0000 8411 0080
00000060: 5e0e 0000 bc0d 0000 820f 0000 7c0e 0000
00000070: df0f 0000 c20d 0080 6a0e 0080 ec0f 0080
00000080: 630e 0080 940e 0000 1e0f 0000 7c0f 0000
00000090: dd0f 0000 d70f 0080 3f11 0080 380f 0080
000000a0: fa0d 0000 ad0d 0000 c510 0080 4823 0080
000000b0: fa0e 0000 660e 0080 0710 0080 4d0e 0080
000000c0: e30e 0000 3c0f 0000 8111 0080 2b0f 0080
000000d0: 1d11 0000 3910 0000 e40d 0080 f90e 0000
000000e0: e30e 0080 f710 0080 d50d 0080 e20e 0080
000000f0: f510 0080 de0f 0000 ae0d 0080 230e 0000
00000100: 320e 0080 710f 0000 0a10 0000 aa0f 0080
00000110: 4411 0000 2310 0000 c70e 0080 590e 0080
00000120: e00e 0080 3d0e 0080 650e 0080 150e 0000
00000130: 5311 0080 d50d 0000 1811 0000 9610 0000
00000140: b30f 0080 ba10 0080 1310 0000 860e 0000
00000150: 2210 0000 b70d 0080 ea0e 0080 3d11 0080
00000160: e50e 0080 7910 0080 fcad 578b 07d0 933c
00000170: 494f 88bb f1fa 1c3d 3043 523c 9f6c 813d
00000180: 0c8f 9b39 6a79 e33d 52ae 2bbb c60d 0000
00000190: bf81 393d 79d8 963d dee2 8cba a29c 0d3d
000001a0: 0fb7 823c 37a5 c022 be09 233d 1049 043d
000001b0: 8990 85bd 6dde 773d fd25 243d a5c9 9bbd
000001c0: f7ad d83d 454c 39bc cf73 673d b6bc ebbb
000001d0: b819 0e3d a983 f33d 4366 f93b 8fbc d339
000001e0: 2129 893c 8e06 7e3d fd06 0d3c 9800 8bbd
000001f0: 5fbe 96bd c906 6cbb bf97 17bc 11aa 933b
00000200: 492d 81bd 3a5c 03bc 662d 9b3d fc69 e23d
00000210: ac38 653d 75ca b939 ce7d af3b 6249 933c
00000220: 683a 093e b531 343d 140e 0000 5f34 cc3d
00000230: 480e 0000 e5eb 6cbb 6d11 593d 8462 383d
00000240: 8b1a f73c 46e0 eb3d f2fc e23c 7314 b7bd
00000250: 2d61 523c 468c aa3b d2df e03c 76c3 12be
00000260: 3561 3f3c b692 c03d 7308 80bd eb3d 893b
00000270: f527 caba 22f8 373d eb0d a53c 62ae 1fbc
00000280: ab54 52bd 026b 873c 3960 b23d 5dd7 e93d
00000290: f48b 16bc 9d43 8abd 290e 0000 1d57 9dbd
000002a0: 476c da3c cb8f a33a b19f 8a3a 8f53 743d
000002b0: 9908 c73b 400e e9ba a404 94bd bfc7 c13d
000002c0: e154 c43d 0f09 5d3b 592b f038 c2a9 9ebd
000002d0: 2b11 0080 010e 0000 410e 0080 070f 0080
000002e0: 6b0e 0080 bc0d 0000 1f10 0000 e70e 0000
000002f0: 050f 0080 960e 0000 de0d 0080 ed0d 0080
00000300: c40f 0000 ce10 0080 630e 0080 d90f 0080
00000310: 3e0e 0000 9c0e 0080 680f 0000 0b0e 0080
00000320: e90e 0080 7011 0080 d90d 0080 9a0e 0080
00000330: bb0e 0000 f70e 0000 c610 0080 b40d 0000
00000340: 100e 0000 c70e 0000 ac0e 0080 290e 0000
00000350: a80e 0000 490e 0000 d90d 0080 ca0d 0080
00000360: 610e 0000 bd0e 0080 d90d 0000 200e 0080
00000370: 3e0e 0000 0c0f 0080 2d0e 0000 3e10 0080
00000380: ab0e 0000 8d0e 0080 b50d 0080 860e 0080
00000390: 2a10 0080 970f 0000 0e0e 0080 610e 0000
000003a0: 310e 0000 9d0e 0000 c90d 0080 f90e 0080
000003b0: e910 0000 c10d 0000 6a0e 0080 530f 0080
000003c0: 2f0f 0080 ee0e 0000 430e 0080 270e 0000
000003d0: e70e 0080 d50e 0080 e60e 0080 db0d 0080
000003e0: d00e 0080 be0f 0080 320e 0000 ba0e 0080
000003f0: 360f 0080 da0d 0080 a60f 0000 2711 0000
5.584e-42 5.53e-42 6.11e-42 5.357e-42 5.195e-42 5.465e-42 -5.904e-42 -5.17e-42
-6.058e-42 -5.78e-42 -5.862e-42 -5.776e-42 5.038e-42 -4.969e-42 -5.842e-42 5.367e-42
5.472e-42 5.032e-42 -5.04e-42 5.09e-42 5.244e-42 5.447e-42 4.959e-42 -6.283e-42
5.154e-42 4.927e-42 5.563e-42 5.196e-42 5.693e-42 -4.935e-42 -5.171e-42 -5.712e-42
-5.161e-42 5.23e-42 5.423e-42 5.555e-42 5.69e-42 -5.682e-42 -6.187e-42 -5.46e-42
5.014e-42 4.906e-42 -6.016e-42 -1.2657e-41 5.373e-42 -5.165e-42 -5.75e-42 -5.13e-42
5.34e-42 5.465e-42 -6.279e-42 -5.441e-42 6.139e-42 5.82e-42 -4.983e-42 5.371e-42
-5.34e-42 -6.086e-42 -4.962e-42 -5.339e-42 -6.083e-42 5.692e-42 -4.907e-42 5.071e-42
-5.092e-42 5.54e-42 5.754e-42 -5.619e-42 6.194e-42 5.789e-42 -5.301e-42 -5.147e-42
-5.336e-42 -5.108e-42 -5.164e-42 5.052e-42 -6.215e-42 4.962e-42 6.132e-42 5.95e-42
-5.632e-42 -6e-42 5.766e-42 5.21e-42 5.787e-42 -4.92e-42 -5.35e-42 -6.184e-42
-5.343e-42 -5.909e-42 -4.1538385e-32 0.018043531 -0.004159842 0.038325254 0.012833402 0.06319546
0.00029670482 0.11107142 -0.0026196432 4.941e-42 0.04528975 0.07365508 -0.0010748764 0.034573205
0.01595643 5.2216632e-18 0.039804213 0.03229624 -0.065217085 0.060514856 0.04007529 -0.0760682
0.10580056 -0.011309688 0.056506928 -0.007194127 0.034692496 0.118903466 0.0076110675 0.00040385543
0.016743245 0.06201797 0.008607623 -0.067872226 -0.07360529 -0.0036014786 -0.009252488 0.0045063575
-0.063074656 -0.008017594 0.075770184 0.11055371 0.05596225 0.00035436792 0.0053555733 0.017979328
0.13401186 0.043992717 5.05e-42 0.099709265 5.123e-42 -0.0036151346 0.052995134 0.045015827
0.030164024 0.11517386 0.027708504 -0.08939447 0.012840551 0.00520471 0.027450476 -0.14332375
0.011680891 0.09402983 -0.062516116 0.0041882894 -0.0015423285 0.044914372 0.020148238 -0.009746166
-0.051350277 0.016530517 0.08709759 0.114180304 -0.009188641 -0.067511775 5.08e-42 -0.07682631
0.026662959 0.0012478767 0.0010576156 0.05965 0.006074023 -0.0017780736 -0.07227448 0.09461927
0.09586502 0.0033727323 0.00011452166 -0.077472225 -6.159e-42 5.024e-42 -5.113e-42 -5.391e-42
-5.172e-42 4.927e-42 5.783e-42 5.346e-42 -5.388e-42 5.232e-42 -4.975e-42 -4.996e-42
5.656e-42 -6.028e-42 -5.161e-42 -5.685e-42 5.109e-42 -5.241e-42 5.527e-42 -5.038e-42
-5.349e-42 -6.255e-42 -4.968e-42 -5.238e-42 5.284e-42 5.368e-42 -6.017e-42 4.916e-42
5.045e-42 5.301e-42 -5.263e-42 5.08e-42 5.258e-42 5.125e-42 -4.968e-42 -4.947e-42
5.158e-42 -5.287e-42 4.968e-42 -5.067e-42 5.109e-42 -5.398e-42 5.085e-42 -5.827e-42
5.262e-42 -5.22e-42 -4.917e-42 -5.21e-42 -5.799e-42 5.593e-42 -5.042e-42 5.158e-42
5.091e-42 5.242e-42 -4.945e-42 -5.371e-42 6.066e-42 4.934e-42 -5.171e-42 -5.497e-42
-5.447e-42 5.356e-42 -5.116e-42 5.077e-42 -5.346e-42 -5.321e-42 -5.345e-42 -4.97e-42
-5.314e-42 -5.647e-42 5.092e-42 -5.283e-42 -5.457e-42 -4.969e-42 5.614e-42 6.153e-42

conv2.lin_l.bias f4 [90]
00000000: 6176 17b4 0304 a3ba 0f89 85b9 6e43 b83c
00000010: 065d b73a e13b 4fba 9f40 bbbd 70bc 79bc
00000020: 42e2 1e3b 92b5 bb9c d3d1 583d 1a6d 2db2
00000030: 91c4 ea3c 889f 813d cbdf 3c3d c22d a33d
00000040: a7d5 c9ba ac00 a9b6 ab86 86b6 0d9b 853d
00000050: 99ca f73c f82f 88bc 7691 77ac fa37 49b8
00000060: 9b24 2bbc 0df7 8fbb d5b1 74b1 8175 fc3a
00000070: f701 bfb4 298c 853c 9988 7abd 70c9 98bb
00000080: 46b4 52bb de6d 96b6 c962 3e3d 6840 7bb4
00000090: 3ce2 daa1 caff 8c3d 3a2b 7dbd 35fa b8bc
000000a0: cafc fb3c 2289 923b d5d7 1ab8 2add 00bd
000000b0: 220c a2bb 35b8 40af 037f 1fbd d1e0 0abc
000000c0: 4e0f 91bb 7149 263d 25a6 83bb 40bf bbbc
000000d0: f4bb 3abb 7808 0d3d d08e 08bd 4bd2 57b9
000000e0: 8726 6f3c d31c 2cbd ddad a4bc db78 f9b6
000000f0: 6685 0b3d 8d1e 40bb 3ddb 8b3d 4660 62bc
00000100: 39e5 dbbc b73e 90bd 2865 e23c 2920 bcb9
00000110: 678b 833c b069 e43b 511e 74bc e6f1 c1b9
00000120: b482 8cb9 19cd 273d bcfe dabb 4246 363c
00000130: 15b6 02bd 6054 fabb fb72 7e3b 46ae 123c
00000140: bb9d 2c3d 423f c8b5 0d7d 3dbb b0d5 15b3
00000150: 26f9 7f3d c1b5 843c de0a e73c 40c5 d53b
00000160: ec14 3f3d 348c 7cb6
-1.4106037e-07 -0.0012437109 -0.00025469853 0.02249309 0.0013989515 -0.0007905346 -0.09143185 -0.015242681
0.0024243747 -1.2421557e-21 0.05293448 -1.0094732e-08 0.028658183 0.06329256 0.046111863 0.07967712
-0.0015398756 -5.0366707e-06 -4.0091886e-06 0.06523714 0.030247973 -0.016624436 -3.5181558e-12 -4.7974267e-05
-0.010445739 -0.0043934644 -3.560776e-09 0.0019261093 -3.5577952e-07 0.016302185 -0.061165426 -0.004662685
-0.0032150908 -4.4831386e-06 0.046480928 -2.3399627e-07 -1.4832138e-18 0.068847254 -0.061808802 -0.022580246
0.030760188 0.004471914 -3.691747e-05 -0.03146092 -0.004945294 -1.7527742e-10 -0.038939487 -0.008476452
-0.0044268733 0.040597383 -0.0040176087 -0.022918344 -0.0028493376 0.034431905 -0.03333932 -0.00020582338
0.014596588 -0.042019676 -0.020102436 -7.4348477e-06 0.034062766 -0.0029315085 0.06828926 -0.013816899
-0.0268427 -0.07043212 0.027636126 -0.00035882115 0.016057683 0.0069706067 -0.014899806 -0.00036992057
-0.00026800262 0.04096708 -0.0066831987 0.011125149 -0.03191193 -0.007639453 0.0038825858 0.008952683
0.04214261 -1.4919572e-06 -0.0028913647 -3.4886114e-08 0.062493466 0.016199948 0.028203424 0.006523758
0.046650812 -3.7632535e-06

conv2.lin_r.weight f4 [90, 90]
00000000: ae0d 0000 c40d 0000 100e 0080 040e 0080
00000010: 510e 0080 d10d 0080 e10d 0000 950e 0080
00000020: b50d 0000 d52c 0000 e80d 0000 120e 0000
00000030: 630f 0000 420f 0080 990f 0080 0234 0000
00000040: c20d 0080 e00d 0080 6810 0000 e00d 0080
00000050: b30d 0080 b70d 0080 c70d 0000 f30d 0080
00000060: ff0d 0080 240e 0000 ff0d 0000 c40d 0000
00000070: ed0f 0000 700e 0080 6010 0000 cd0d 0000
00000080: 110e 0080 b810 0080 6110 0000 b80f 0080
00000090: 3d0f 0000 e20d 0080 360e 0080 870e 0000
000000a0: f50d 0080 6710 0000 290e 0080 ae0f 0000
000000b0: b40d 0000 df0d 0000 e60d 0000 170e 0000
000000c0: a60e 0080 e710 0000 370f 0080 e10d 0000
000000d0: f50d 0080 4c0f 0080 420e 0000 9f0e 0000
000000e0: ff0d 0080 8310 0000 6e0f 0000 1c11 0080
000000f0: b00d 0080 4111 0080 f70d 0080 490e 0080
00000100: 050e 0000 020e 0000 6c0e 0080 d60e 0080
00000110: 960f 0080 c40e 0080 d50d 0000 d40d 0000
00000120: 5510 0000 dc0d 0000 d810 0080 db0d 0080
00000130: 4d22 0000 430e 0000 c40d 0080 e80d 0000
00000140: 090f 0080 d90f 0000 fb0d 0080 400e 0080
00000150: c00e 0080 040e 0080 0f0f 0000 660e 0000
00000160: f20f 0080 830e 0080 f35e 8e90 fe60 1f3d
00000170: 8843 c93c d543 f2bc dda2 353d 74a4 893d
00000180: 22c9 c039 c3f8 bf3d 1ee6 c03b db0d 0000
00000190: 9898 093d 69b1 033e abd1 333d 7c02 8b3d
000001a0: 1bfd 753d 9623 ff21 899c 8a3d 6163 6b3d
000001b0: 408a 28be 2a18 103c b6b5 8b3d 9370 83bd
000001c0: 53d3 0c3b def4 07bc 1923 00bd 4416 733b
000001d0: f770 6e3c fa4b 513d 5822 963c e1c6 b939
000001e0: ab7a 133d 170f 17b9 a858 573c 8529 2dbe
000001f0: 0909 34be 8f14 de3c 5bde aa3c 7b96 033b
00000200: 681d 25be 6dd7 8138 c050 173d 3818 783c
00000210: b7cc 133c f55a e4b9 1420 153c 27a4 653c
00000220: a457 713c 5183 833d ee0d 0000 d446 293e
00000230: 0a0e 0080 588a df3c ba54 b5bc 4592 943d
00000240: 9d8c 0b3d b037 403e 5709 5b3d 6385 4abe
00000250: e5e3 c43c 392e 433c 7023 3e3d 8100 03be
00000260: 160f bb3b 1171 a83d 1ddc 29be 73cb 453c
00000270: 16f7 8bba b870 8d3d 6008 263d 2cba 673c
00000280: 7e28 14be 7eef 283d 18c5 173e 8881 713d
00000290: 7680 973c 1e79 2dbe f80d 0080 5192 36be
000002a0: 7075 f9ba 3d1f 493a 8345 253b b30f e23d
000002b0: 78b1 ab3c 00cf b8ba 46ea 33be 44fc b73d
000002c0: 3f89 c33d b0eb 093c 37a3 ea38 71f9 3bbe
000002d0: 1a11 0080 d90d 0000 7b1d 1980 e883 428e
000002e0: cd0d 0080 a8a3 c089 0710 0000 280e 0080
000002f0: d64e ac17 ae0d 0080 c00c 0000 cb10 0080
00000300: 5310 0080 ce0f 0080 fe0d 0080 5010 0080
00000310: d60d 0080 d90d 0000 af0e 0000 760c 3818
00000320: db0d 0000 ea0d 0000 720e 0080 270e 0000
00000330: 17d5 5f0a 140e 0080 ec03 5a82 0af1 609e
00000340: b60d 0080 c00d 0080 f90d 0080 9657 aca4
00000350: ba0d 0080 260f 0080 c10d 0080 c90d 0080
00000360: 300e 0080 ba8c 0110 c70e 0080 d90f 0080
00000370: e62c 540a 4a0e 0080 510e 0000 de0d 0000
00000380: 1903 0218 bb16 1311 ea42 719f c00d 0080
00000390: f30e 0080 f00e 0000 8b0e 0080 c70d 0000
000003a0: 4dd7 c003 d10d 0000 ed0d 0000 f10d 0080
000003b0: 2e0e 0000 1c0e 0000 c40d 0000 5a0e 0000
000003c0: f993 0f80 430e 0080 af0d 0080 dc0d 0080
000003d0: cd0d 0000 e80d 0080 790f 0000 b90d 0080
000003e0: 160e 0000 ba0d 0000 b40d 0000 d20d 0000
000003f0: 870e 0000 8e62 1c11 f810 0000 e20d 0000
4.907e-42 4.938e-42 -5.045e-42 -5.028e-42 -5.136e-42 -4.956e-42 4.979e-42 -5.231e-42
4.917e-42 1.6083e-41 4.989e-42 5.047e-42 5.52e-42 -5.473e-42 -5.595e-42 1.8657e-41
-4.935e-42 -4.977e-42 5.885e-42 -4.977e-42 -4.914e-42 -4.92e-42 4.942e-42 -5.004e-42
-5.021e-42 5.073e-42 5.021e-42 4.938e-42 5.713e-42 -5.179e-42 5.874e-42 4.951e-42
-5.046e-42 -5.998e-42 5.876e-42 -5.639e-42 5.466e-42 -4.98e-42 -5.098e-42 5.211e-42
-5.007e-42 5.884e-42 -5.08e-42 5.625e-42 4.916e-42 4.976e-42 4.986e-42 5.054e-42
-5.255e-42 6.063e-42 -5.458e-42 4.979e-42 -5.007e-42 -5.487e-42 5.115e-42 5.245e-42
-5.021e-42 5.923e-42 5.535e-42 -6.138e-42 -4.91e-42 -6.19e-42 -5.01e-42 -5.125e-42
5.029e-42 5.025e-42 -5.174e-42 -5.322e-42 -5.591e-42 -5.297e-42 4.962e-42 4.96e-42
5.859e-42 4.972e-42 -6.042e-42 -4.97e-42 1.2305e-41 5.116e-42 -4.938e-42 4.989e-42
-5.394e-42 5.685e-42 -5.015e-42 -5.112e-42 -5.291e-42 -5.028e-42 5.402e-42 5.165e-42
-5.72e-42 -5.206e-42 -5.6155417e-29 0.03891086 0.024568334 -0.02957336 0.04434477 0.0672082
0.0003677095 0.093736194 0.005886807 4.97e-42 0.03359279 0.12860645 0.043901127 0.06787583
0.060055833 1.7288892e-18 0.06768138 0.057467822 -0.16458988 0.008794824 0.06821768 -0.06417956
0.0021488264 -0.008298127 -0.03128347 0.0037092129 0.0145533 0.051097848 0.018326923 0.00035434126
0.036005657 -0.00014406104 0.013143696 -0.1691037 -0.17581572 0.027109412 0.02085798 0.0020078707
-0.16124499 6.1913255e-05 0.036942244 0.015142493 0.009020976 -0.00043555317 0.009101886 0.014016188
0.014730368 0.06421531 4.997e-42 0.16530925 -5.036e-42 0.027287647 -0.022135127 0.07254461
0.034069646 0.18771243 0.053475704 -0.19777445 0.02403445 0.011912876 0.046420515 -0.12793161
0.0057085855 0.08224691 -0.16587873 0.012072432 -0.0010678496 0.06906265 0.04053533 0.014143508
-0.14468572 0.041244023 0.14821279 0.05896142 0.018493872 -0.16940734 -5.011e-42 -0.17829253
-0.0019032191 0.00076721964 0.0025218434 0.11038151 0.020958647 -0.0014099777 -0.17569837 0.08983663
0.09547662 0.008418009 0.000111883906 -0.18356873 -6.135e-42 4.968e-42 -2.306463e-39 -2.3975857e-30
-4.951e-42 -4.637622e-33 5.75e-42 -5.078e-42 1.113514e-24 -4.907e-42 4.574e-42 -6.024e-42
-5.856e-42 -5.67e-42 -5.02e-42 -5.852e-42 -4.963e-42 4.968e-42 5.267e-42 2.3787734e-24
4.97e-42 4.991e-42 -5.182e-42 5.077e-42 1.0777137e-32 -5.05e-42 -1.6017236e-37 -1.1908307e-20
-4.919e-42 -4.933e-42 -5.012e-42 -7.4741486e-17 -4.924e-42 -5.434e-42 -4.934e-42 -4.945e-42
-5.09e-42 2.5549176e-29 -5.301e-42 -5.685e-42 1.0215873e-32 -5.126e-42 5.136e-42 4.975e-42
1.680367e-24 1.160326e-28 -5.1089085e-20 -4.933e-42 -5.363e-42 5.359e-42 -5.217e-42 4.942e-42
1.1334176e-36 4.956e-42 4.996e-42 -5.001e-42 5.087e-42 5.061e-42 4.938e-42 5.148e-42
-1.430615e-39 -5.116e-42 -4.909e-42 -4.972e-42 4.951e-42 -4.989e-42 5.55e-42 -4.923e-42
5.053e-42 4.924e-42 4.916e-42 4.958e-42 5.211e-42 1.23366e-28 6.087e-42 4.98e-42

conv3.lin_l.weight f4 [90, 90]
00000000: ec0e 0080 ec0d 0000 b610 0000 7e0e 0000
00000010: 2e0c 0080 b90d 0080 830f 0000 fb10 0080
00000020: b810 0080 2710 0080 d70f 0000 870e 0000
00000030: 340e 0080 0711 0080 e70e 0080 b30e 0080
00000040: c110 0080 3f0f 0080 a110 0000 7411 0080
00000050: 9410 0000 9510 0000 600f 0000 a110 0000
00000060: ff17 0080 a51a 0000 9c0e 0080 4d11 0000
00000070: 7e0e 0080 720c 0080 8a11 0000 fd10 0000
00000080: bc0e 0000 b90d 0080 470f 0080 401d 0000
00000090: e60e 0000 b30d 0000 610e 0000 e00d 0080
000000a0: 5c10 0080 a810 0080 d00e 0000 b728 0000
000000b0: 1010 0000 6310 0000 fd10 0080 1110 0080
000000c0: 610f 0080 8610 0080 6a0e 0000 ff21 0080
000000d0: 970f 0080 500f 0000 d30f 0000 5a10 0000
000000e0: 690f 0080 0511 0000 c70f 0000 0f0f 0000
000000f0: b010 0000 a710 0080 f60f 0080 220e 0080
00000100: d00f 0080 f60d 0080 c60e 0000 c410 0000
00000110: 880f 0080 7d11 0000 e70d 0000 cc0e 0000
00000120: 5204 0000 e30e 0000 af0d 0080 5611 0000
00000130: 050e 0000 2d0f 0080 e812 0000 e10f 0000
00000140: f810 0080 5e10 0000 770f 0080 ae0d 0000
00000150: 540f 0000 8810 0080 ed16 0080 7b0f 0000
00000160: 100e 0080 190f 0000 5710 0080 db8f 43b8
00000170: 5510 0000 9f4b 7ab8 3086 a9b6 3a10 0000
00000180: 6f39 8a2e 9418 70b6 7c32 91b7 d910 0080
00000190: 57d5 8ab8 4f10 0000 1a34 7fb8 f2f8 82b8
000001a0: 5ba2 d4b8 e94d 3cb7 96d9 08b6 5d4d 0000
000001b0: 750f 0080 ef52 8cb8 1403 dfb8 1355 15b9
000001c0: 7f73 508c 539e 5532 9ca1 c6b7 980e 0080
000001d0: 8f11 0080 6165 07b6 758e 3380 9ebf 5fb8
000001e0: 4cb0 102e 221a 46b8 9cb4 bab7 c90e 0080
000001f0: 9ed1 97b8 a510 0080 200f 0000 097d 0eb9
00000200: 2ea9 d625 a152 dbb7 34e5 b9b8 a524 ceb7
00000210: b34f 2917 5ceb 0435 6a7f 9d8f e52d 4684
00000220: 6729 b3a8 1fed ebb6 4663 8400 7823 06b9
00000230: e3d3 26b8 b85a 6bb8 ad0d 0080 0bce f9b6
00000240: a675 c22f bc10 0000 41f2 82b8 f483 fc21
00000250: ad5e d60f 4d11 0000 c7b8 ddb8 a6c1 88b8
00000260: a8cd 26b9 75b6 81b7 7feb 90b6 cc47 e42f
00000270: d5d6 9ab6 d6cd 9930 16ae 3db8 6cbc 11b8
00000280: bb2e d7b6 324c 339c 66dc 838f a4a1 53b6
00000290: a331 12b7 d1ff 69b8 3cd0 02b8 ef0e 0000
000002a0: 31b4 16b8 826b 7fb8 4ed0 abb8 b10e 0080
000002b0: eb04 8428 e10f 0080 a2c5 8cb8 8050 38b8
000002c0: 0baa 8ab8 019d 61b8 1fac aeb8 760e 0000
000002d0: 970f 0080 f017 ac2f 9211 0080 3b9d 6d31
000002e0: bb98 1a2f e70d 0080 d0de 0c30 5052 c7b1
000002f0: 4d02 83b0 c00f 0000 d519 52b1 190f 0000
00000300: 6e95 4231 2bfd 7331 d425 12b2 51df edb0
00000310: 7ad9 6b30 2611 0080 f80e 0000 8bd2 7c31
00000320: 352a c9ae 9a5e 0faf 600f 0000 dc13 941d
00000330: f919 fdaf 0711 0000 93d5 6326 7716 2931
00000340: 130e 0080 a163 f8b0 260f 0080 45ac 3931
00000350: c40c 64b0 8d2e 0080 436d e131 940f 0000
00000360: 650f 0080 9dd4 05b2 fe0f 0000 c9c5 8232
00000370: 50e3 fc30 2c4f e630 b60e 0080 dd0e 0000
00000380: 572a 0080 df0d 0080 310f 0080 a229 91af
00000390: b50d 0080 3d3a 9cb1 b993 06b1 ae94 9e2f
000003a0: 503f 0000 592d fbb0 960e 0080 380e 0080
000003b0: a599 5b31 7002 0000 4637 0080 a40f 0000
000003c0: f1e5 16b2 2e30 afb1 942d ec31 eb23 a7af
000003d0: 2f96 dc31 980f 0000 347e 3e31 a370 e8aa
000003e0: e9a7 a5b0 a04d 53b0 a8bf 1eaf 2a23 ba0c
000003f0: 7e11 0080 84fa ea2e 9aca c62f 53b6 7731
-5.353e-42 4.994e-42 5.995e-42 5.199e-42 -4.369e-42 -4.923e-42 5.565e-42 -6.091e-42
-5.998e-42 -5.794e-42 5.682e-42 5.211e-42 -5.095e-42 -6.108e-42 -5.346e-42 -5.273e-42
-6.01e-42 -5.469e-42 5.965e-42 -6.261e-42 5.947e-42 5.949e-42 5.516e-42 5.965e-42
-8.608e-42 9.558e-42 -5.241e-42 6.206e-42 -5.199e-42 -4.465e-42 6.292e-42 6.094e-42
5.286e-42 -4.923e-42 -5.48e-42 1.0493e-41 5.345e-42 4.914e-42 5.158e-42 -4.977e-42
-5.869e-42 -5.975e-42 5.314e-42 1.4606e-41 5.762e-42 5.878e-42 -6.094e-42 -5.764e-42
-5.517e-42 -5.927e-42 5.171e-42 -1.2196e-41 -5.593e-42 5.493e-42 5.677e-42 5.866e-42
-5.528e-42 6.105e-42 5.66e-42 5.402e-42 5.986e-42 -5.974e-42 -5.726e-42 -5.07e-42
-5.672e-42 -5.008e-42 5.3e-42 6.014e-42 -5.572e-42 6.274e-42 4.987e-42 5.308e-42
1.55e-42 5.34e-42 -4.909e-42 6.219e-42 5.029e-42 -5.444e-42 6.782e-42 5.696e-42
-6.087e-42 5.871e-42 -5.548e-42 4.907e-42 5.499e-42 -5.93e-42 -8.224e-42 5.553e-42
-5.045e-42 5.416e-42 -5.862e-42 -4.66256e-05 5.859e-42 -5.9675072e-05 -5.052214e-06 5.821e-42
6.285716e-11 -3.5777093e-06 -1.7308856e-05 -6.044e-42 -6.6200904e-05 5.85e-42 -6.084526e-05 -6.245253e-05
-0.00010139189 -1.1223813e-05 -2.039223e-06 2.7753e-41 -5.545e-42 -6.691168e-05 -0.00010634042 -0.0001424144
-1.6058493e-31 1.24342305e-08 -2.3678695e-05 -5.235e-42 -6.299e-42 -2.0175578e-06 -4.734714e-39 -5.33458e-05
3.2898392e-11 -4.7231217e-05 -2.225703e-05 -5.304e-42 -7.239285e-05 -5.971e-42 5.426e-42 -0.00013588755
3.7237723e-16 -2.6145311e-05 -8.86418e-05 -2.4574178e-05 5.470744e-25 4.9516325e-07 -1.5530473e-29 -2.3295862e-36
-1.9890948e-14 -7.0311503e-06 1.2157898e-38 -0.00012792449 -3.977482e-05 -5.6112855e-05 -4.906e-42 -7.444765e-06
3.537199e-10 6.003e-42 -6.244006e-05 1.7111112e-18 2.1138497e-29 6.206e-42 -0.00010572519 -6.521055e-05
-0.00015907607 -1.5462962e-05 -4.31895e-06 4.1523973e-10 -4.6145674e-06 1.1190717e-09 -4.522324e-05 -3.4746176e-05
-6.4129395e-06 -5.932461e-22 -1.3002492e-29 -3.1535537e-06 -8.713835e-06 -5.5789777e-05 -3.118835e-05 5.357e-42
-3.5930603e-05 -6.0896862e-05 -8.192715e-05 -5.27e-42 1.4657077e-14 -5.696e-42 -6.712532e-05 -4.394399e-05
-6.612026e-05 -5.37904e-05 -8.3290266e-05 5.188e-42 -5.593e-42 3.1303626e-10 -6.303e-42 3.4577414e-09
1.4060479e-10 -4.987e-42 5.124834e-10 -5.80102e-09 -9.532158e-10 5.65e-42 -3.0573706e-09 5.416e-42
2.8315656e-09 3.5505063e-09 -8.50692e-09 -1.730749e-09 8.5801555e-10 -6.152e-42 5.37e-42 3.6790506e-09
-9.147919e-11 -1.3039383e-10 5.516e-42 3.9195808e-21 -4.6038887e-10 6.108e-42 7.9045893e-16 2.4605507e-09
-5.049e-42 -1.8072691e-09 -5.434e-42 2.7018967e-09 -8.296406e-10 -1.6699e-41 6.5607835e-09 5.588e-42
-5.523e-42 -7.789962e-09 5.737e-42 1.5223934e-08 1.8400019e-09 1.6757205e-09 -5.277e-42 5.332e-42
-1.5189e-41 -4.976e-42 -5.45e-42 -2.6404928e-10 -4.917e-42 -4.5468185e-09 -1.9583537e-09 2.8845676e-10
2.2712e-41 -1.8275542e-09 -5.232e-42 -5.101e-42 3.1956031e-09 8.74e-43 -1.9828e-41 5.611e-42
-8.783432e-09 -5.0986477e-09 6.8736856e-09 -3.0402644e-10 6.4199166e-09 5.594e-42 2.7720377e-09 -4.1289636e-13
-1.2053053e-09 -7.6871665e-10 -1.4438106e-10 2.8679e-31 -6.275e-42 1.06855885e-10 3.6159947e-10 3.604687e-09

conv3.lin_l.bias f4 [90]
00000000: d4c2 1ab8 ec38 a63a 68e3 e0b7 56f5 7fbb
00000010: 4edf 2ab8 4387 1db6 f7ce c3bc 80ae 7eba
00000020: 5a0a 75bb 3896 bbb8 19be 16bd f935 efbc
00000030: 110c 50bd ad98 0a3d 0625 543d 3c56 4a3d
00000040: 5697 67b4 6f2a cda9 6224 d5bc 8210 44b9
00000050: b9da 60b0 0d6f 81b7 5052 23bb 1bfc 70bb
00000060: 097c 46ae 2223 82b8 5861 76bd 7f08 30bc
00000070: 2fe2 87a9 9f65 ae3c 5cc9 19bc 99e3 51b8
00000080: cf00 22bc 16aa aabb 1a49 7ab8 0eac e03d
00000090: 5247 aa3d 7122 34bb b87e 0a3e 6540 35b0
000000a0: 6425 41ba e7ff 0a3d e71e 9fbb 07d3 45b9
000000b0: b1f0 953d 7cfa 49bd c015 7bbd ac87 413e
000000c0: 6e35 0e3e a0ac 22b7 c1d7 3f3d b202 b83c
000000d0: 55be 57b6 670d 37bd d56f acbc 5491 d8bb
000000e0: c669 4ab4 d1f0 1fa4 2d9e e9b2 3bd3 0bb7
000000f0: 09be f03d 2ac4 8698 93b1 0c3e d6e2 13ba
00000100: d9a4 77b5 5185 ce3d b9d4 23b6 2a95 21bc
00000110: 14b9 03bc ad17 f9b8 2fb9 ceb9 5e34 623c
00000120: ad46 753d e804 b33d 0ac4 953d 00c4 2cbd
00000130: 374f 303d 7c56 bfa9 02fa a1bd 3c6d e3bc
00000140: 5b9f 29b8 7075 c73d 9a7c c1b2 748c 73bd
00000150: f706 89b7 c466 05b9 24a4 25bd 9b57 993c
00000160: 0c14 aa3d 974e 46b8
-3.689791e-05 0.0012681759 -2.6808775e-05 -0.0039056144 -4.0739127e-05 -2.3473556e-06 -0.0239024 -0.00097153336
-0.0037390203 -8.944835e-05 -0.036802385 -0.02920054 -0.050792757 0.03383701 0.05179312 0.049398646
-2.1568607e-07 -9.11119e-14 -0.026018325 -0.00018698166 -8.180155e-10 -1.542971e-05 -0.0024920888 -0.003677136
-4.5130153e-11 -6.205427e-05 -0.060151428 -0.010744213 -6.034441e-14 0.021288691 -0.009386387 -5.004145e-05
-0.009887888 -0.005208264 -5.9672726e-05 0.10970317 0.083143845 -0.002748635 0.13524902 -6.5938927e-10
-0.00073679374 0.033935454 -0.004855979 -0.00018865998 0.07321299 -0.049311146 -0.06130004 0.18899411
0.1388757 -9.696145e-06 0.04683662 0.022462223 -3.2148284e-06 -0.044690516 -0.02104942 -0.0066091213
-1.8851196e-07 -3.468161e-17 -2.71967e-08 -8.334227e-06 0.11754996 -3.4836263e-24 0.13739614 -0.0005641406
-9.2254555e-07 0.10084022 -2.4412714e-06 -0.009862224 -0.0080397315 -0.00011877655 -0.00039429354 0.013806431
0.059881855 0.0874117 0.07312782 -0.042179108 0.043044295 -8.4971066e-14 -0.07909013 -0.027762048
-4.044115e-05 0.09739196 -2.252482e-08 -0.05946012 -1.6334916e-05 -0.00012722152 -0.04043974 0.018718531
0.08304605 -4.728007e-05

conv3.lin_r.weight f4 [90, 90]
00000000: 7c0e 0080 1910 0000 b40d 0080 b910 0000
00000010: 1110 0080 6a1b 0080 c90e 0000 d40d 0000
00000020: ed05 0000 660e 0080 4064 208f c50d 0080
00000030: b70d 0000 9c0b 0000 7fdd 4b19 f43c 478d
00000040: 6506 0000 c00e 0080 bd0d 0080 bb77 0380
00000050: 0970 0413 ed0d 0080 c30d 0000 e548 0000
00000060: 301e 0000 6910 0000 130e 0080 8825 0000
00000070: 4411 0000 310e 0000 b622 bc32 290f 0080
00000080: f10f 0080 810e 0000 01b0 a503 1c10 0080
00000090: 561c 0000 ab8e 20a2 4a2a 0080 e80d 0000
000000a0: edc5 a317 280e 0080 6c11 0080 bb0d 0000
000000b0: c70f 0000 9610 0000 b10d 0000 2a10 0000
000000c0: 320f 0080 2825 c809 620e 0080 3a10 0080
000000d0: fa0e 0000 0bc2 0100 cd0d 0000 700e 0080
000000e0: ec0d 0000 6110 0000 c40f 0000 b90e 0080
000000f0: f8d9 1904 800e 0000 2619 0303 b30f 0000
00000100: e10e 0080 d80d 0000 f2e8 1b83 9a58 0080
00000110: ef0d 0000 e10e 0080 b500 0080 ae0e 0000
00000120: cc24 0000 25e6 f58c 740f 0080 e00d 0080
00000130: c20e 0080 c00e 0000 ff0f 0080 350e 0000
00000140: 6334 0080 180e 0000 f40f 0080 960f 0080
00000150: f497 ee8f 370e 0080 d10d 0080 9207 0000
00000160: fd23 0300 200e 0080 e60d 0000 117f 54b8
00000170: 6b03 0080 b83e ffb7 420a 4133 cf0d 0080
00000180: ddcd e1b2 2b34 2c37 9df8 93b7 9311 0080
00000190: cc77 34b8 b50d 0080 80b3 d2b6 4050 19b9
000001a0: 008d 41ba aff4 5abb 2179 f6b5 5c2a 0080
000001b0: d50d 0080 3ecb 80b9 ee65 18bb 397b 1ab8
000001c0: 6766 a40e 5a78 2032 4b03 8fb4 be3a 4886
000001d0: ac0d 0080 92f4 5538 0f24 e201 be4f b2b6
000001e0: ae14 16b0 0254 c0b7 2ac5 b935 b20d 0080
000001f0: 5c18 9db9 690e 0080 490e 0080 e15e e8ba
00000200: 5c47 7328 b45b dcb4 128e 9bb8 5e79 86b7
00000210: c7dd 6e96 0f14 083a 3eed 6a8f 7d90 1508
00000220: 43a5 5c29 726d 9f32 98b5 6e81 7e1a d5ba
00000230: d66d 2bb7 e749 2bb8 0573 0300 55c0 cab9
00000240: 00a2 abb3 640e 0000 5ffb dab6 8a1d 8fa1
00000250: a1b5 a990 d40d 0080 0efd b4b9 05e7 d3b8
00000260: 0d46 73ba df18 0e33 c7ce 2236 674b 8736
00000270: 71ba 62ba d881 9325 4051 43b7 065d 1eb7
00000280: c274 5d31 6187 e01c 54af 390e f1bb 8d39
00000290: 6d1b b6b5 c421 27b8 6826 2c37 b2e9 3020
000002a0: af56 ebb7 2af6 dcb7 cfeb f0b8 2a0e 0080
000002b0: b476 8226 520e 0000 0d6e aab9 aff9 dd36
000002c0: 68e8 0ab8 ad93 93b8 d7ce 0037 3111 0000
000002d0: 2d20 0080 2c1f 71b1 a80e 0080 bf19 97af
000002e0: 685f ed2e b80e 0000 1c49 bd33 b036 8cb1
000002f0: 9f07 8f31 690f 0080 70b3 0632 910e 0080
00000300: f226 d3b0 fbc2 d2b1 381d 2b32 8e58 e832
00000310: 9ad1 8331 1a11 0000 7911 0000 f25a 6a2f
00000320: 7606 f1b1 138e 5432 b40e 0080 f466 e81e
00000330: 0193 d22f 7f10 0080 7a00 0000 a940 8a31
00000340: 7c11 0080 221c 1230 ba0d 0000 df25 c3af
00000350: 86da ef30 b80d 0080 5e4c 83b0 2f11 0080
00000360: 8010 0000 e685 3032 a40e 0080 1dfa 9432
00000370: 6439 f3b1 cea5 6531 970f 0080 ad0d 0000
00000380: f40d 0080 7511 0080 3d09 0080 28db 74ae
00000390: b50d 0000 2de8 0c32 6ff6 0a31 18b5 09b1
000003a0: c90f 0000 ad64 2fb2 870e 0000 4b0f 0080
000003b0: abcc c6b0 b60d 0000 bf0f 0000 b00d 0080
000003c0: 1787 d531 d3b0 b531 b715 16b2 479d 5f2f
000003d0: 1284 ef31 8a11 0080 b8fa 1a32 991d 542c
000003e0: bab8 5b31 507c 1931 a867 9a2e 4e79 540d
000003f0: 590f 0080 492b 51b2 c9ae bfb0 e029 34b0
-5.196e-42 5.775e-42 -4.916e-42 5.999e-42 -5.764e-42 -9.834e-42 5.304e-42 4.96e-42
2.126e-42 -5.165e-42 -7.9079165e-30 -4.94e-42 4.92e-42 4.165e-42 1.0539585e-23 -6.139498e-31
2.294e-42 -5.291e-42 -4.928e-42 -3.18458e-40 1.671598e-27 -4.996e-42 4.937e-42 2.615e-41
1.0829e-41 5.887e-42 -5.049e-42 1.3464e-41 6.194e-42 5.091e-42 2.1901865e-08 -5.438e-42
-5.719e-42 5.203e-42 9.738237e-37 -5.779e-42 1.0165e-41 -2.1759571e-18 -1.517e-41 4.989e-42
1.0583592e-24 -5.078e-42 -6.25e-42 4.926e-42 5.66e-42 5.95e-42 4.912e-42 5.799e-42
-5.451e-42 4.818319e-33 -5.16e-42 -5.821e-42 5.373e-42 1.61445e-40 4.951e-42 -5.179e-42
4.994e-42 5.876e-42 5.656e-42 -5.281e-42 1.808515e-36 5.202e-42 3.852631e-37 5.632e-42
-5.338e-42 4.966e-42 -4.5817814e-37 -3.1784e-41 4.998e-42 -5.338e-42 -2.54e-43 5.266e-42
1.32e-41 -3.788674e-31 -5.544e-42 -4.977e-42 -5.294e-42 5.291e-42 -5.738e-42 5.097e-42
-1.8793e-41 5.056e-42 -5.723e-42 -5.591e-42 -2.3527142e-29 -5.1e-42 -4.956e-42 2.716e-42
2.88417e-40 -5.067e-42 4.986e-42 -5.066308e-05 -1.226e-42 -3.0427575e-05 4.4945644e-08 -4.954e-42
-2.6287063e-08 1.0264145e-05 -1.7639535e-05 -6.304e-42 -4.3026914e-05 -4.917e-42 -6.2793843e-06 -0.00014621112
-0.00073833764 -0.0033410003 -1.8363681e-06 -1.5196e-41 -4.962e-42 -0.0002456549 -0.0023254114 -3.683122e-05
4.052773e-30 9.3405905e-09 -2.6638222e-07 -3.7658976e-35 -4.905e-42 5.101093e-05 8.307103e-38 -5.3140966e-06
-5.459907e-10 -2.2927303e-05 1.3840956e-06 -4.913e-42 -0.00029963523 -5.17e-42 -5.125e-42 -0.0017728471
1.3504683e-14 -4.1044916e-07 -7.4174386e-05 -1.603056e-05 -1.9295467e-25 0.0005190977 -1.1582782e-29 4.50079e-34
4.8993155e-14 1.8559806e-08 -4.3843983e-38 -0.0016258506 -1.0217967e-05 -4.0838404e-05 3.16768e-40 -0.0003867174
-7.9922756e-08 5.162e-42 -6.5261697e-06 -9.697876e-19 -6.693859e-29 -4.96e-42 -0.00034520816 -0.00010104295
-0.0009280153 3.308457e-08 2.4260241e-06 4.0320915e-06 -0.0008648998 2.558842e-16 -1.1641823e-05 -9.439193e-06
3.2226102e-09 1.4858071e-21 2.2887428e-30 0.00027033643 -1.3568039e-06 -3.984735e-05 1.0260941e-05 1.4985103e-19
-2.8054548e-05 -2.6340673e-05 -0.000114880146 -5.081e-42 9.052737e-16 5.137e-42 -0.0003250692 6.6153802e-06
-3.311821e-05 -7.037013e-05 7.677553e-06 6.167e-42 -1.1542e-41 -3.5087835e-09 -5.258e-42 -2.7485034e-10
1.079446e-10 5.28e-42 8.814297e-08 -4.0807535e-09 4.162714e-09 -5.528e-42 7.840626e-09 -5.225e-42
-1.536334e-09 -6.133971e-09 9.960154e-09 2.7048625e-08 3.8364307e-09 6.135e-42 6.268e-42 2.1314486e-10
-7.0147577e-09 1.2372328e-08 -5.274e-42 2.4606536e-20 3.830323e-10 -5.918e-42 1.71e-43 4.0236796e-09
-6.272e-42 5.315447e-10 4.924e-42 -3.5497202e-10 1.7451647e-09 -4.921e-42 -9.553209e-10 -6.164e-42
5.919e-42 1.0274993e-08 -5.252e-42 1.7343206e-08 -7.0787554e-09 3.3418135e-09 -5.593e-42 4.906e-42
-5.005e-42 -6.262e-42 -3.314e-42 -5.5673827e-11 4.917e-42 8.201863e-09 2.0221724e-09 -2.0039064e-09
5.663e-42 -1.0209232e-08 5.211e-42 -5.486e-42 -1.4464566e-09 4.919e-42 5.649e-42 -4.91e-42
6.214474e-09 5.287896e-09 -8.7360865e-09 2.0337608e-10 6.97083e-09 -6.292e-42 9.020987e-09 3.0143442e-12
3.19737e-09 2.2335094e-09 7.021522e-11 6.547356e-31 -5.506e-42 -1.2175243e-08 -1.3946756e-09 -6.5543126e-10

fc1.weight f4 [32, 90]
00000000: cd0d 0080 f40d 0080 570e 0080 5a0e 0000
00000010: d00d 0080 380e 0000 150e 0080 4fda 2d0e
00000020: 560e 0080 110e 0000 01fe c326 390e 0000
00000030: 170e 0080 0fad 9f98 ab2f b58a a110 0080
00000040: fc0e 0000 cf1d 0080 630e 0080 1f0e 0080
00000050: 5c0e 0000 7011 0000 af0d 0000 140e 0080
00000060: 5b06 0000 af0e 0000 3611 0080 c50d 0000
00000070: 270f 0000 f70d 0000 c172 7296 ca10 0080
00000080: 9686 4110 a410 0080 0a0f 0080 47f1 ef0a
00000090: e50d 0000 7a11 0000 f93e 090d c40d 0080
000000a0: 3f0b 0080 81d4 8081 320e 0000 5d0f 0080
000000b0: d70d 0000 960e 0000 270e 0000 df6a 86a4
000000c0: f771 8427 a40e 0080 90c2 898f d741 0080
000000d0: 2e7d 6183 ada5 7b89 6c11 0080 c10d 0080
000000e0: ff0d 0080 a50e 0000 d110 0000 8910 0080
000000f0: 010e 0000 9a0f 0000 c5c9 8c08 eb0d 0080
00000100: d10d 0080 e10d 0080 3b10 0080 9dfd b30b
00000110: 1e21 0907 1aa5 0080 c40d 0080 8810 0000
00000120: c40d 0080 bc0d 0000 0ba3 4a00 030e 0080
00000130: 250e 0080 ee0d 0080 0510 0000 e021 0000
00000140: 8768 b005 d90d 0000 5b10 0000 630e 0000
00000150: f80d 0000 7a0e 0000 030e 0000 213b 8195
00000160: 915c 0000 b70d 0000 c10d 0080 bd2d aeb4
00000170: cc0d 0080 49c8 aeb9 d50f 0000 dd0d 0080
00000180: 0cf2 10b8 ae0d 0080 cf0d 0000 e60d 0080
00000190: a145 abb8 3e6b 49b9 53c8 7839 b652 e9b7
000001a0: 624c 9bb8 cdbc 15b9 eb0d 0080 2f10 0000
000001b0: 9331 8439 2e0e 0000 e70e 0000 9f0e 0000
000001c0: dc24 0f39 ffab f938 3110 0080 9d0e 0080
000001d0: ef59 e6b8 1b2a 5e38 3511 0080 5f5a 15b6
000001e0: d077 cfb8 b40f 0080 0679 e9b8 656e 7438
000001f0: 881a 0080 3efa 04b9 b0ee 9fb8 b30d 0080
00000200: 1cf6 e9b8 b20d 0000 f410 0000 11dc 0e38
00000210: f2c1 b4b8 140e 0080 df1e 92b7 7ca9 fcb8
00000220: 08bf 63b8 c549 26b9 a560 b5b8 d20d 0080
00000230: 19ab e8b7 029d 2638 030e 0080 43f8 c1b8
00000240: 62dc d7b7 d60d 0000 f60d 0000 de0e 0080
00000250: 6f40 56aa 510e 0080 8f5d f3b8 e10e 0080
00000260: 00a7 20b9 57dc e9b8 dd0d 0000 3dc1 bfb8
00000270: 8c0f 0000 75ca a7b8 e40d 0080 dd0d 0080
00000280: c90d 0000 e9ec 9836 f2a0 45b8 3bd4 aab8
00000290: 74a7 85b8 393e cfb8 fbcd 9538 ce0d 0080
000002a0: 8439 af36 0e0e 0080 bd0d 0000 95db b2b8
000002b0: 0220 1c29 09b8 7438 e20e 0080 670e 0080
000002c0: 5209 8438 7e6a 51b7 0fd7 9bb8 c20f 0080
000002d0: 7105 0080 35bd c23b e76f d136 7c31 083e
000002e0: ecc9 d12e d556 84a6 24a7 013e ee85 a439
000002f0: 9dca 66a0 76db ad8e 9f2b 213e 31d9 403e
00000300: ae12 333e 3ace 7fba 2cec 163d 1a4d 8a3c
00000310: 2511 0000 020e 0000 bdb2 c8bd 2f74 3db5
00000320: 66fd bc91 1e10 0080 a000 3e3e 0542 253e
00000330: 650e 0080 1dd9 71ab 4154 a43d fbd5 2d3e
00000340: 6f0e 0000 8836 cabc 1660 3f3e e75d 392b
00000350: a582 1d3e c7f7 8abd 1e7d 1b8c a734 1a3d
00000360: cb83 c7bc e12d 2437 964d 9e3c 6ba4 dfaf
00000370: eedb 2f0c 0792 883c b885 e33d cdf3 b7b1
00000380: 3e3f d8bc 746c 443e 6c8b 103e 57bb f03c
00000390: 444a de3b ffbf 6281 7507 923c dcc3 aa3c
000003a0: e40d 0080 88e4 253e 1d28 223e 7517 6cb4
000003b0: b00d 0080 f70d 0000 127b f431 6359 0322
000003c0: ff55 edbb d0af c697 ada9 873d b14e 2d3e
000003d0: 5911 0080 843a 48bd 2a87 5f39 8e27 013e
000003e0: d83d 0cb9 4693 eeb6 e586 8929 fe04 e739
000003f0: 3c63 0fbd a0f6 eebc 06b0 0d3d 46fc 243e
-4.951e-42 -5.005e-42 -5.144e-42 5.148e-42 -4.955e-42 5.101e-42 -5.052e-42 2.1429008e-30
-5.143e-42 5.046e-42 1.3599691e-15 5.102e-42 -5.054e-42 -4.127528e-24 -1.7447597e-32 -5.965e-42
5.375e-42 -1.0693e-41 -5.161e-42 -5.066e-42 5.151e-42 6.255e-42 4.909e-42 -5.05e-42
2.28e-42 5.267e-42 -6.174e-42 4.94e-42 5.436e-42 5.01e-42 -1.9584814e-25 -6.023e-42
3.816622e-29 -5.97e-42 -5.395e-42 2.3105621e-32 4.984e-42 6.27e-42 4.2292185e-31 -4.938e-42
-4.034e-42 -4.73247e-38 5.092e-42 -5.511e-42 4.965e-42 5.232e-42 5.077e-42 -5.829428e-17
3.676092e-15 -5.252e-42 -1.3584186e-29 -2.3619e-41 -6.6265256e-37 -3.0290926e-33 -6.25e-42 -4.934e-42
-5.021e-42 5.253e-42 6.033e-42 -5.932e-42 5.024e-42 5.597e-42 8.473379e-34 -4.993e-42
-4.956e-42 -4.979e-42 -5.822e-42 6.9329887e-32 1.0316467e-34 -5.9227e-41 -4.938e-42 5.93e-42
-4.938e-42 4.927e-42 6.854316e-39 -5.026e-42 -5.074e-42 -4.997e-42 5.747e-42 1.2152e-41
1.6589358e-35 4.968e-42 5.867e-42 5.161e-42 5.011e-42 5.193e-42 5.026e-42 -5.2195974e-26
3.3207e-41 4.92e-42 -4.934e-42 -3.2443305e-07 -4.95e-42 -0.0003333709 5.68e-42 -4.973e-42
-3.45577e-05 -4.907e-42 4.954e-42 -4.986e-42 -8.166885e-05 -0.00019208805 0.0002372575 -2.781428e-05
-7.405203e-05 -0.00014280081 -4.993e-42 5.806e-42 0.00025213938 5.087e-42 5.346e-42 5.245e-42
0.00013651274 0.00011905282 -5.808e-42 -5.242e-42 -0.00010984006 5.296814e-05 -6.173e-42 -2.2255333e-06
-9.892846e-05 -5.633e-42 -0.00011132848 5.8276946e-05 -9.518e-42 -0.00012681723 -7.62617e-05 -4.914e-42
-0.00011156147 4.913e-42 6.082e-42 3.406039e-05 -8.619194e-05 -5.05e-42 -1.7418932e-05 -0.00012047865
-5.429893e-05 -0.00015858475 -8.648754e-05 -4.958e-42 -2.7736229e-05 3.972371e-05 -5.026e-42 -9.2491995e-05
-2.5732621e-05 4.963e-42 5.008e-42 -5.333e-42 -1.9029373e-13 -5.136e-42 -0.000116045696 -5.338e-42
-0.00015321001 -0.00011151347 4.973e-42 -9.143583e-05 5.577e-42 -8.000891e-05 -4.983e-42 -4.973e-42
4.945e-42 4.557533e-06 -4.7118352e-05 -8.145763e-05 -6.373125e-05 -9.882119e-05 7.1432405e-05 -4.952e-42
5.222102e-06 -5.042e-42 4.928e-42 -8.528602e-05 3.466672e-14 5.834553e-05 -5.339e-42 -5.167e-42
6.2959865e-05 -1.2482165e-05 -7.431034e-05 -5.653e-42 -1.952e-42 0.0059429654 6.2417125e-06 0.13300127
9.540088e-11 -9.182876e-16 0.12661415 0.00031380303 -1.9548797e-19 -4.2859126e-30 0.15739296 0.18832852
0.17487594 -0.0009758208 0.036846325 0.016882468 6.15e-42 5.025e-42 -0.097997166 -7.0577056e-07
-2.981734e-28 -5.782e-42 0.18554926 0.16138466 -5.164e-42 -8.5921705e-13 0.08023883 0.16976158
5.178e-42 -0.024684206 0.18688998 6.585552e-13 0.15381868 -0.06785541 -1.1978417e-31 0.03764787
-0.024354836 9.785844e-06 0.019324105 -4.068029e-10 1.3547692e-31 0.016671194 0.11109489 -5.353718e-09
-0.026397344 0.19181997 0.14115685 0.029386206 0.0067837555 -4.1647395e-38 0.017825821 0.020845346
-4.983e-42 0.16200459 0.15835615 -2.1987746e-07 -4.91e-42 5.01e-42 7.115326e-09 1.7801132e-18
-0.0072429175 -1.2839831e-24 0.0662416 0.1692455 -6.223e-42 -0.04888393 0.0002131729 0.12612745
-0.00013374479 -7.1100976e-06 6.1074226e-14 0.00044063473 -0.035006747 -0.029170334 0.034591697 0.1611186
